model/Normal/wii4_1.pth (torch, 9034 bytes, 19 tensors)

layer_stack.0.weight f4 [10, 11]
000000 0f b7 58 be a1 da 04 bc 64 f2 95 3e b3 c2 4c be
       -0.21163581 -0.008108766 0.29286492 -0.19996147
000010 b3 56 4f 3d d7 17 ef 3d d4 37 4d 3d 1b 70 65 be
       0.050619792 0.11674469 0.05010207 -0.22406046
000020 3b 24 32 3d 0d 2b 83 3e ce 6e 0e be f4 a6 b2 3e
       0.043491583 0.25618783 -0.13909456 0.34893
000030 3a 62 ce c0 0a 7e 97 bf 8d 8e 12 3f 36 32 40 c0
       -6.4494905 -1.1835339 0.57248765 -3.0030646
000040 08 83 a7 bd f5 80 31 c1 17 37 23 be a0 92 9f bf
       -0.08179289 -11.093984 -0.15938984 -1.2466621
000050 ae 40 50 40 5e f3 76 40 6f c4 0b be 61 78 46 3e
       3.2539477 3.858604 -0.13649152 0.19381858
000060 66 62 71 40 da 51 3f 40 99 74 06 40 0a bc 39 3f
       3.7716308 2.9893708 2.1008666 0.7255255
000070 2a 24 f4 3e 66 d4 a0 3c 08 f4 c9 40 c0 a2 dd 3f
       0.4768384 0.01963253 6.311039 1.7315292
000080 80 3d 05 c0 8a da c7 bd 17 93 6d 3e c2 d4 82 be
       -2.0818787 -0.0975848 0.23200642 -0.25552946
000090 bf 4b 97 3e de b1 3c be e4 e2 37 bd a2 9c 18 bd
       0.29549977 -0.18427226 -0.044894114 -0.03725875
0000a0 f3 82 f8 bd 94 7d 56 3e 4c 82 54 bc 37 3c 3d be
       -0.121343516 0.20946342 -0.012970518 -0.18480001
0000b0 a1 6a 55 be b9 94 5f bb 1b a8 d4 3c d8 d4 53 be
       -0.20841457 -0.0034115745 0.025959065 -0.20686662
0000c0 aa 9a 1c 3c 0f 58 6d be b9 fe 3f bd 1a f4 b5 3d
       0.009558359 -0.23178123 -0.04687378 0.08884449
0000d0 89 68 89 bd a0 6a 02 be fe 91 54 bd e1 5d d8 3d
       -0.067093916 -0.12735987 -0.05189704 0.10564781
0000e0 9b da 18 be 59 27 86 3c 5c 9a 4a 3e 8f 80 2c bb
       -0.14927141 0.016376184 0.19785446 -0.0026321744
0000f0 4a 44 4b 3e 6c 7b 8b be 1d dd 80 be a8 32 0c be
       0.19850269 -0.272426 -0.25168696 -0.13691199
000100 c2 58 26 3e c4 53 3a 3e 35 64 50 be ea 21 08 c0
       0.16244796 0.18196017 -0.20350726 -2.12707
000110 f6 3a a6 3f ed 37 32 40 40 10 0f bf a6 df c0 bf
       1.2986743 2.7846634 -0.5588417 -1.5068252
000120 ca d1 2c c1 30 32 8c 3e dd ac 55 3b 7f 39 7e 40
       -10.801218 0.2738204 0.0032604255 3.9722593
000130 5d 23 3a 3f 96 11 e5 bc 13 b4 ce 3f e7 f7 8d 3f
       0.7271021 -0.027962487 1.6148704 1.1091279
000140 03 71 90 40 c3 a1 f8 bf f1 be 89 be 5b 2d 02 c1
       4.5137954 -1.9424366 -0.2690349 -8.136073
000150 ef 3d 51 bd 84 bc 41 40 f9 09 a1 bf 4a 29 fa 3f
       -0.051084455 3.027131 -1.2581168 1.954385
000160 4f c1 7f 3d 6f 55 6c 40 c3 6a 29 40 28 ad 8c 3f
       0.062440213 3.6927145 2.6471412 1.0990343
000170 8a 9b 1f 40 bd 0e 1b 40 04 c3 b2 40 b5 4c 10 be
       2.4938684 2.4227746 5.5863056 -0.14091761
000180 1d c8 d9 bf 81 b9 39 c0 d5 16 82 bf ea f4 5a 3e
       -1.7014195 -2.9019473 -1.0163218 0.2138249
000190 d1 68 2f 3f 7c 49 6b 40 da 2d 93 40 af 58 ec bf
       0.6851931 3.6763601 4.599347 -1.8464564
0001a0 04 7f 9c 3f d2 80 b0 c0 46 a2 8a be 34 80 9c 3e
       1.2226262 -5.515725 -0.2707693 0.3056656
0001b0 1c cc 12 c0 bf 71 f0 3e
       -2.2937078 0.4696178

layer_stack.0.bias f4 [10]
000000 18 79 77 be c3 b5 f1 bf eb 00 34 c0 bd cc 89 3e
       -0.24167287 -1.8883594 -2.812556 0.26914015
000010 da eb 3e be 75 c6 96 3e 52 14 ee bf 5c b4 ec be
       -0.18644658 0.29448286 -1.8599951 -0.46231353
000020 82 27 23 bf 60 6d f6 bf
       -0.6373216 -1.9252129

layer_stack.2.weight f4 [9, 10]
000000 79 a4 89 be 8c b2 e4 3e 58 4e 04 c0 be 6e ef bc
       -0.26883295 0.4466747 -2.0672817 -0.02922761
000010 53 db ff 3c 8b 7e b6 bc 60 33 86 3f 2f 42 b9 3f
       0.031232512 -0.022277137 1.0484428 1.4473323
000020 04 02 79 40 c2 06 2d 3f c4 d2 07 3e 8e e1 df 3e
       3.890748 0.67588437 0.13263994 0.43726772
000030 4d 6a 0c c0 1e 4f 81 3d 0d 2b 8b 3d 1d 5e 08 be
       -2.193988 0.063139185 0.06795321 -0.13317151
000040 ff 14 59 bf de da 0d c0 35 a8 6f be e8 7d 12 3f
       -0.8479766 -2.2164836 -0.2340401 0.5722337
000050 53 d6 91 bc 03 ff 7a 3e e1 3c ca 3f 0d d1 35 3d
       -0.017802393 0.24511342 1.5799829 0.04438882
000060 96 65 34 be 67 86 cc bd 88 17 3b 40 aa 45 a8 3e
       -0.17616877 -0.09986573 2.9233112 0.3286565
000070 cc 95 a7 3f 4b d8 e2 3f 1d 81 90 3d c4 d6 ab 3f
       1.3092589 1.7722257 0.070558764 1.3424916
000080 c7 35 3f c0 4a c3 b7 bd 6c 67 18 be 9c 67 05 be
       -2.9876573 -0.08972795 -0.14883202 -0.13027805
000090 08 20 61 40 60 3a 76 3f 2d e1 02 c0 ea 21 03 c1
       3.51758 0.96182823 -2.0449936 -8.19578
0000a0 0a 95 83 3e c8 c2 a5 3f 27 58 95 3f 57 d1 c1 3d
       0.25699645 1.2950068 1.1667527 0.094637565
0000b0 79 40 35 bd 89 10 d0 3c 8d 53 3a bf 36 2d 9d c0
       -0.04425094 0.02539851 -0.7278374 -4.911769
0000c0 8c c0 ce bf f1 7d a0 3f cd 10 14 be 37 14 e3 3e
       -1.6152511 1.2538434 -0.14459534 0.4435136
0000d0 d2 7a 4b c0 1b d2 f0 3c 6e 00 1d be 28 f4 0c 3e
       -3.1793714 0.029397061 -0.15332195 0.13765013
0000e0 3a 6f f3 bf c6 52 86 bd 97 4e 92 bf 73 53 d5 3f
       -1.9018319 -0.065587565 -1.1430234 1.6666092
0000f0 ee 51 82 3e 32 ae f8 3e 1e 4f 89 be 20 a6 8c 3e
       0.25453132 0.485704 -0.26818174 0.27470493
000100 6e 4b 52 bd 97 5e 1f be b3 88 61 be 91 66 c3 bf
       -0.051341467 -0.15563427 -0.22024803 -1.5265676
000110 3b 54 89 3e 18 c0 09 bf 1e af 77 be 9e 71 ed 3f
       0.26822075 -0.53808737 -0.24187896 1.8550298
000120 9f 1c f4 3f 04 b4 0b bd 07 e7 38 bc 2a 9b 4a 3d
       1.9071234 -0.034107223 -0.01128555 0.049464382
000130 81 ea c1 be 26 f0 2a bf cc 31 98 bf d2 bb 8e bf
       -0.37874225 -0.6677269 -1.1890197 -1.1151068
000140 d1 5d e4 bc da 02 3e bf f6 4a 98 3f d9 23 b0 3d
       -0.027876766 -0.742231 1.1897876 0.086005874
000150 02 37 ae bd d8 ed 48 3e 23 70 61 3f c8 fb 63 bf
       -0.08506586 0.1962198 0.8806173 -0.8905606
000160 66 04 d2 be 5b e0 2d 3f
       -0.4101898 0.67920464

layer_stack.2.bias f4 [9]
000000 57 26 a1 bf 39 21 78 3f ff 93 60 bf a4 31 37 40
       -1.2589825 0.96925694 -0.87725824 2.8624048
000010 1d 1b 31 bf b9 d7 05 c0 52 fd 2d 3f d1 80 f6 3f
       -0.69181997 -2.0912917 0.6796466 1.9258062
000020 1a d5 a1 3f
       1.2643158

layer_stack.4.weight f4 [8, 9]
000000 36 cc 48 3f 16 58 18 c0 0c db 48 bf 15 65 ec 3d
       0.784366 -2.3803763 -0.7845924 0.11542717
000010 66 f5 39 40 f6 91 0c be 47 3b 65 c0 48 18 c3 be
       2.905603 -0.13727555 -3.581743 -0.38104463
000020 38 ae a8 3f 6f 0e 41 3e 4f e8 b8 3f 03 7c 61 be
       1.3178167 0.18853162 1.4445895 -0.22019963
000030 90 56 9c 3e 29 08 ba bc 7c f0 ac bf 80 e4 e5 3f
       0.30534792 -0.02270897 -1.351089 1.7960358
000040 3a ec 3a be 8c fd 08 bf 2d 6d 94 3f ac 38 d1 40
       -0.18254176 -0.5351188 1.1595818 6.538168
000050 fd 00 bf 3f a4 69 07 40 9d e0 8a 3e 38 e3 c2 bf
       1.4922177 2.1158228 0.2712449 -1.5225592
000060 87 90 99 40 28 36 ac bf 7b 7b ce 3d db 8a 8b 3e
       4.7988925 -1.3454027 0.10082146 0.27254376
000070 65 97 5f c0 0a 8e 9d be 2e 1a 52 bf ba 1f 99 bf
       -3.4936154 -0.3077243 -0.820712 -1.1962807
000080 f5 4a 66 be a6 22 13 3f 5e 89 55 3e e0 55 59 3e
       -0.22489531 0.57474744 0.20853183 0.21224165
000090 08 01 87 be 7c ff 55 40 08 83 96 3e d5 c6 1c bf
       -0.26367974 3.3437185 0.29396844 -0.61240894
0000a0 7f c6 b5 3f d9 49 23 40 cd 89 bb 40 12 6f d2 bf
       1.4201201 2.5513823 5.8605714 -1.6440146
0000b0 0b 1e 08 3f a9 00 04 3d db da d2 c0 e3 ea bc bd
       0.5317084 0.032227192 -6.5892158 -0.092244886
0000c0 fc 47 7b bd c5 15 77 c0 8c 76 03 3e 78 af 07 40
       -0.061347947 -3.8607037 0.12838191 2.1200848
0000d0 b6 e4 fd be f9 f6 ce 3e de 1d 09 bf aa 3a f6 40
       -0.49588555 0.404228 -0.535612 7.694661
0000e0 5d 69 2a 3f 63 d4 6f 3f 1b 83 e0 3f 65 c3 05 3e
       0.6656702 0.9368345 1.754001 0.13062818
0000f0 8f 06 16 3f 40 72 e4 bf 7a 0e 4a bf 57 ef 97 be
       0.5860376 -1.7847366 -0.7892834 -0.2967479
000100 2b 4e 8d 3d bc 9d 8c 3f 21 7a ec be 82 92 b5 3f
       0.06899675 1.0985637 -0.46186927 1.4185336
000110 6e 3f 2d bf d9 c6 11 3f 96 c5 50 bf 5c 60 4e bf
       -0.6767491 0.5694404 -0.8155149 -0.8061578

layer_stack.4.bias f4 [8]
000000 ac 3a 97 c0 81 2b 4e c0 d9 49 97 40 65 5b be 3f
       -4.725912 -3.2214053 4.7277646 1.4871641
000010 08 79 22 3f 19 46 2d 40 51 c6 e6 bf 72 a5 1c c0
       0.6346593 2.7074034 -1.8029271 -2.447598

layer_stack.6.weight f4 [7, 8]
000000 bd cb 84 3f 73 c7 15 40 37 c1 91 3d 69 c5 09 3f
       1.0374676 2.3402984 0.07116931 0.5381685
000010 d9 4d 40 be 10 6f 18 40 d8 96 0d bf d9 94 bd be
       -0.18779697 2.3817787 -0.55308294 -0.37027624
000020 16 88 e3 40 8e 5e 96 40 11 e9 41 bf e6 ea b9 40
       7.110362 4.6990423 -0.75746256 5.809924
000030 35 21 0c c0 3c aa e9 40 eb c8 cc 3f 44 08 00 40
       -2.1895268 7.3020306 1.5998815 2.0005045
000040 bc c2 74 3f e9 80 14 40 4a 83 26 be 2d 09 1b c1
       0.9560964 2.320368 -0.1626102 -9.68974
000050 53 25 32 bf 96 7b 2c 3f 25 b2 c5 3e d2 12 30 3f
       -0.695882 0.6737608 0.38612476 0.6877872
000060 28 a2 0c c0 0d 9b 76 3e bc e3 1f 3e 86 f7 0e 41
       -2.1973972 0.24082585 0.15614218 8.935431
000070 63 09 47 be 8f 95 93 bf 51 9b e4 bd 49 39 b3 3e
       -0.19437174 -1.1530017 -0.11162437 0.35004643
000080 39 7f 4f 40 0d de 06 40 13 16 16 be 78 fb 95 c0
       3.24214 2.107303 -0.14656858 -4.686947
000090 47 81 70 bf 1e cc c8 bf 11 49 05 3f 5c c5 20 3e
       -0.9394726 -1.5687292 0.52064615 0.15700287
0000a0 fb 5b 8f 3c d1 51 17 be b0 7d ee bc 3b eb 20 3e
       0.017499914 -0.14777304 -0.029112667 0.15714733
0000b0 1f c1 99 bf 2a ee f8 be 54 06 bf 3c 3e c2 f8 bf
       -1.2012061 -0.48619205 0.023318447 -1.9434278
0000c0 58 e4 ef 3d 03 04 91 c0 97 17 45 3e 6c 14 fc 40
       0.11713475 -4.5317397 0.1924728 7.877493
0000d0 bc da a4 bd 58 3e 80 3f 9e d0 4d 3d 4f 33 a6 bf
       -0.08049533 1.0019026 0.05024778 -1.2984408

layer_stack.6.bias f4 [7]
000000 1e 14 66 3f e5 e2 39 c0 3b 8e 1c c0 b7 83 8d bf
       0.89874446 -2.9044735 -2.446181 -1.1055821
000010 e3 57 29 40 ce 19 89 bf a2 df 32 40
       2.6459892 -1.0711 2.7948995

layer_stack.8.weight f4 [6, 7]
000000 20 ea 4c bf e4 24 ce 3e 3a ef ee 3f bc 72 54 3f
       -0.80044746 0.4026252 1.8666756 0.8298757
000010 7e 71 c3 3f 78 ed cb 3e 89 25 3e bf 66 00 ff bb
       1.526901 0.39829612 -0.74276024 -0.00778203
000020 f8 a3 e0 3a 66 8d 7a bd 8f 7a 1e bf 1a 8f 99 be
       0.001713871 -0.061170004 -0.6190576 -0.2999199
000030 94 e7 94 be 06 1e 4f 3e 70 a5 fc bf 5f 19 fe 3f
       -0.2908293 0.20226297 -1.9737988 1.9851493
000040 7f 4c f0 3e 30 d7 80 3d 10 23 eb 3c 44 ae 59 be
       0.46933362 0.06291044 0.028703243 -0.21257883
000050 71 83 2c 40 45 fe c3 bf 3b 0f 13 c0 89 24 6c c0
       2.6955225 -1.5311972 -2.2978046 -3.68973
000060 98 72 b4 bc cb 03 36 be 2b 16 78 be 04 ec 13 40
       -0.022027299 -0.17774884 -0.24227206 2.3112803
000070 6f 78 61 be 0e 7b 91 bd e3 f2 f5 3d 90 1d 65 bd
       -0.22018598 -0.07103549 0.120092176 -0.055936396
000080 d5 03 82 be b9 6d 05 be ae f0 14 bd 26 fd 07 3d
       -0.2539355 -0.13030137 -0.036362343 0.033200406
000090 5d 08 c8 bd c3 2c 24 3e 06 f4 a7 3d fe ae 02 3c
       -0.0976722 0.160327 0.08200841 0.007976292
0000a0 ca 39 64 3d 7c 8c 10 be
       0.055719174 -0.1411609

layer_stack.8.bias f4 [6]
000000 df ef f0 c0 a4 36 f8 be d7 a5 b8 3f 41 97 61 40
       -7.529281 -0.48479187 1.442561 3.5248568
000010 8f 28 09 40 34 66 72 40
       2.1431005 3.787488

layer_stack.10.weight f4 [5, 6]
000000 7b 03 a8 3e d5 bf c9 bd d1 76 08 bf 0e 3d 32 3f
       0.32815155 -0.09851042 -0.533063 0.6962441
000010 d4 c0 da bf 2b 43 86 3f 5d 18 5d 3c d5 ed da 3d
       -1.7090096 1.0489248 0.013494578 0.10689894
000020 05 3e a5 be 65 76 f5 3b b7 ed d0 be d9 6b b0 be
       -0.3227388 0.0074909204 -0.40806362 -0.3445728
000030 fb a3 01 3f bd cc 3e 3e ba 25 9f 3e c4 e9 19 bf
       0.5064084 0.18632789 0.3108347 -0.60122323
000040 45 63 f6 40 56 35 fe bf 68 de de 3e 57 e6 25 3e
       7.699618 -1.9860027 0.43529058 0.16201149
000050 6a a1 e1 be 16 cd b6 3e 03 dd 41 be 44 d2 7c bf
       -0.44068462 0.35703343 -0.18931966 -0.9875834
000060 74 d8 23 3f 06 a4 4c be 4e 50 76 3f 27 72 90 bf
       0.64002156 -0.19984445 0.96216285 -1.1284837
000070 b7 81 fa 40 40 c2 44 3f
       7.8283343 0.768589

layer_stack.10.bias f4 [5]
000000 ac 57 8c 3f 01 53 e3 3d 32 9e ce c0 d4 ed 03 c0
       1.0964255 0.11099816 -6.456811 -2.0613909
000010 1a 04 76 3f
       0.9610001

layer_stack.12.weight f4 [4, 5]
000000 0d 8e c9 3e ac 05 64 bc a6 33 4e c0 8b 3b 6f bf
       0.3936619 -0.013917368 -3.2219024 -0.9345023
000010 90 f6 c1 3f a6 d2 c5 be 75 0c c1 bc 5c 14 97 3e
       1.515337 -0.38637275 -0.02356551 0.2950772
000020 f7 9b d9 be 7e 42 cd be 12 70 8a be a0 b4 2b bd
       -0.42501804 -0.40089792 -0.27038628 -0.041920304
000030 f7 37 c6 3e c2 f0 41 be b4 13 8d be b5 ba 89 bd
       0.38714573 -0.18939498 -0.27554095 -0.06725065
000040 39 01 4b 3e 15 73 fe be 29 e4 d7 bf 65 27 64 3e
       0.19824685 -0.49697176 -1.6866504 0.22280653

layer_stack.12.bias f4 [4]
000000 6b 06 86 3f 27 cf b5 be d3 42 24 bc 69 0f 7c c0
       1.0470709 -0.35509607 -0.010025698 -3.9384406

layer_stack.14.weight f4 [3, 4]
000000 7e 8b 6b bd d4 63 47 be 68 89 af bd 60 89 e6 be
       -0.057506077 -0.19471675 -0.0857113 -0.45026684
000010 41 55 a4 3e e6 9b a4 3e 10 1a 6a be 99 84 b7 bf
       0.32096294 0.3215019 -0.22861505 -1.433734
000020 13 31 8d bb cc ca cb be bc 2d 58 be 9f af 5d bb
       -0.0043088286 -0.3980316 -0.21111196 -0.0033826602

layer_stack.14.bias f4 [3]
000000 3d b1 2a 3f 6c 47 a4 3f 33 7c 07 3c
       0.66676694 1.2834296 0.0082693575

layer_stack.16.weight f4 [2, 3]
000000 ed c2 d6 3e b3 56 9f be e4 26 0a be 58 82 9b c0
       0.41945592 -0.31120834 -0.13491398 -4.859661
000010 5e 35 bf 3e c1 61 37 3e
       0.37345403 0.17908384

layer_stack.16.bias f4 [2]
000000 e0 df ef be 27 9d 8f 3f
       -0.4685049 1.1219834

layer_stack.18.weight f4 [1, 2]
000000 53 c4 15 3e ca 54 1e 3f
       0.14625673 0.6184813
